…
Use `tf.data.Dataset.interleave(map_func, cycle_length, block_length, num_parallel_calls=tf.data.experimental.AUTOTUNE)` instead. If sloppy execution is desired, use `tf.data.Options.experimental_determinstic`.
2020-07-28 13:22:42.766397: I tensorflow/stream_executor/platform/default/dso_loader.cc:44] Successfully opened dynamic library libcublas.so.10
dataset path: /cluster/scratch/brunnelu/data/
(20, 240)

1.0
(20, 240)

0.0
Model: "sequential"
_________________________________________________________________
Layer (type)                 Output Shape              Param #   
=================================================================
flatten (Flatten)            (None, 4800)              0         
_________________________________________________________________
batch_normalization (BatchNo (None, 4800)              19200     
_________________________________________________________________
dense (Dense)                (None, 64)                307264    
_________________________________________________________________
dense_1 (Dense)              (None, 32)                2080      
_________________________________________________________________
dense_2 (Dense)              (None, 16)                528       
_________________________________________________________________
dense_3 (Dense)              (None, 8)                 136       
_________________________________________________________________
dense_4 (Dense)              (None, 1)                 9         
=================================================================
Total params: 329,217
Trainable params: 319,617
Non-trainable params: 9,600
_________________________________________________________________
Epoch 1/100
      1/Unknown - 11s 11s/step - loss: 0.3125 - accuracy: 0.6875 - mse: 0.3125      2/Unkn
…
