…
2020-09-13 22:10:20.583768: W tensorflow/core/common_runtime/base_collective_executor.cc:216] BaseCollectiveExecutor::StartAbort Out of range: End of sequence
	 [[{{node IteratorGetNext}}]]
	 [[IteratorGetNext/_6]]
2020-09-13 22:10:20.584142: W tensorflow/core/common_runtime/base_collective_executor.cc:216] BaseCollectiveExecutor::StartAbort Out of range: End of sequence
	 [[{{node IteratorGetNext}}]]
dataset path: /cluster/scratch/brunnelu/data/
running model 4
Model: "sequential"
_________________________________________________________________
Layer (type)                 Output Shape              Param #   
=================================================================
reshape (Reshape)            (None, 20, 20, 12)        0         
_________________________________________________________________
batch_normalization (BatchNo (None, 20, 20, 12)        48        
_________________________________________________________________
dense (Dense)                (None, 20, 20, 64)        832       
_________________________________________________________________
dense_1 (Dense)              (None, 20, 20, 32)        2080      
_________________________________________________________________
dense_2 (Dense)              (None, 20, 20, 16)        528       
_________________________________________________________________
dense_3 (Dense)              (None, 20, 20, 8)         136       
_________________________________________________________________
reshape_1 (Reshape)          (None, 20, 160)           0         
_________________________________________________________________
dense_4 (Dense)              (None, 20, 64)            10304     
_________________________________________________________________
dense_5 (Dense)              (None, 20, 32)            2080      
_________________________________________________________________
dense_6 (Dense)              (None, 20, 32)            1056      
_________________________________________________________________
dense_7 (Dense)              (None, 20, 16)            528       
_________________________________________________________________
flatten (Flatten)            (None, 320)               0         
_________________________________________________________________
dense_8 (Dense)              (None, 64)                20544     
_________________________________________________________________
dense_9 (Dense)              (None, 32)                2080      
_________________________________________________________________
dense_10 (Dense)             (None, 32)                1056      
_________________________________________________________________
dense_11 (Dense)             (None, 16)                528       
_________________________________________________________________
dense_12 (Dense)             (None, 16)                272       
_________________________________________________________________
dense_13 (Dense)             (None, 8)                 136       
_________________________________________________________________
dense_14 (Dense)             (None, 1)                 9         
=================================================================
Total params: 42,217
Trainable params: 42,193
Non-trainable params: 24
_________________________________________________________________
(20, 240)

0.0
(20, 240)

0.0
Epoch 1/100
24651/24651 - 3845s - loss: 0.0828 - accuracy: 0.8815 - mse: 0.0828 - val_loss: 0.0000e+00 - val_accuracy: 0.0000e+00 - val_mse: 0.0000e+00
2020-09-13 23:05:58.924124: W tensorflow/core/common_runtime/base_collective_executor.cc:216] BaseCollectiveExecutor::StartAbort Out of range: End of sequence
…
