…
2020-07-28 13:45:51.529089: W tensorflow/core/common_runtime/base_collective_executor.cc:216] BaseCollectiveExecutor::StartAbort Out of range: End of sequence
	 [[{{node IteratorGetNext}}]]
	 [[Shape/_4]]
2020-07-28 13:45:51.529355: W tensorflow/core/common_runtime/base_collective_executor.cc:216] BaseCollectiveExecutor::StartAbort Out of range: End of sequence
	 [[{{node IteratorGetNext}}]]
dataset path: /cluster/scratch/brunnelu/data/
Model: "sequential"
_________________________________________________________________
Layer (type)                 Output Shape              Param #   
=================================================================
reshape (Reshape)            (None, 20, 20, 12)        0         
_________________________________________________________________
batch_normalization (BatchNo (None, 20, 20, 12)        48        
_________________________________________________________________
conv2d (Conv2D)              (None, 18, 18, 8)         872       
_________________________________________________________________
conv2d_1 (Conv2D)            (None, 16, 16, 16)        1168      
_________________________________________________________________
conv2d_2 (Conv2D)            (None, 14, 14, 8)         1160      
_________________________________________________________________
conv2d_3 (Conv2D)            (None, 12, 12, 4)         292       
_________________________________________________________________
flatten (Flatten)            (None, 576)               0         
_________________________________________________________________
dense (Dense)                (None, 64)                36928     
_________________________________________________________________
dense_1 (Dense)              (None, 32)                2080      
_________________________________________________________________
dense_2 (Dense)              (None, 16)                528       
_________________________________________________________________
dense_3 (Dense)              (None, 8)                 136       
_________________________________________________________________
dense_4 (Dense)              (None, 1)                 9         
=================================================================
Total params: 43,221
Trainable params: 43,197
Non-trainable params: 24
_________________________________________________________________
(20, 240)

0.0
(20, 240)

0.0
Epoch 1/100
336/336 - 459s - loss: 0.4539 - accuracy: 0.5461 - mse: 0.4539 - val_loss: 0.0000e+00 - val_accuracy: 0.0000e+00 - val_mse: 0.0000e+00
2020-07-28 13:46:01.723157: I tensorflow/core/kernels/data/shuffle_dataset_op.cc:143] Filling up shuffle buffer (this may take a while): 75 of 128
…
