…
2020-07-21 04:14:29.029131: I tensorflow/stream_executor/platform/default/dso_loader.cc:44] Successfully opened dynamic library libcublas.so.10
2020-07-21 04:14:39.372517: I tensorflow/core/kernels/data/shuffle_dataset_op.cc:143] Filling up shuffle buffer (this may take a while): 63 of 128
2020-07-21 04:14:43.864533: I tensorflow/core/kernels/data/shuffle_dataset_op.cc:193] Shuffle buffer filled.
dataset path: /cluster/scratch/brunnelu/data/
(20, 240)

0.0
(20, 240)

0.0
Model: "sequential"
_________________________________________________________________
Layer (type)                 Output Shape              Param #   
=================================================================
flatten (Flatten)            (None, 4800)              0         
_________________________________________________________________
batch_normalization (BatchNo (None, 4800)              19200     
_________________________________________________________________
dense (Dense)                (None, 64)                307264    
_________________________________________________________________
dense_1 (Dense)              (None, 32)                2080      
_________________________________________________________________
dense_2 (Dense)              (None, 16)                528       
_________________________________________________________________
dense_3 (Dense)              (None, 8)                 136       
_________________________________________________________________
dense_4 (Dense)              (None, 1)                 9         
=================================================================
Total params: 329,217
Trainable params: 319,617
Non-trainable params: 9,600
_________________________________________________________________
Epoch 1/100
      1/Unknown - 17s 17s/step - loss: 0.9666 - accuracy: 0.4375 - mse: 0.8092      2/Unkn
…
