…
2020-07-28 13:55:20.894395: W tensorflow/core/common_runtime/base_collective_executor.cc:216] BaseCollectiveExecutor::StartAbort Out of range: End of sequence
	 [[{{node IteratorGetNext}}]]
2020-07-28 13:55:20.894420: W tensorflow/core/common_runtime/base_collective_executor.cc:216] BaseCollectiveExecutor::StartAbort Out of range: End of sequence
	 [[{{node IteratorGetNext}}]]
	 [[IteratorGetNext/_2]]
dataset path: /cluster/scratch/brunnelu/data/
Model: "sequential"
_________________________________________________________________
Layer (type)                 Output Shape              Param #   
=================================================================
reshape (Reshape)            (None, 20, 20, 12)        0         
_________________________________________________________________
batch_normalization (BatchNo (None, 20, 20, 12)        48        
_________________________________________________________________
conv2d (Conv2D)              (None, 18, 18, 16)        1744      
_________________________________________________________________
conv2d_1 (Conv2D)            (None, 16, 16, 32)        4640      
_________________________________________________________________
conv2d_2 (Conv2D)            (None, 14, 14, 16)        4624      
_________________________________________________________________
conv2d_3 (Conv2D)            (None, 12, 12, 8)         1160      
_________________________________________________________________
conv2d_4 (Conv2D)            (None, 10, 10, 4)         292       
_________________________________________________________________
conv2d_5 (Conv2D)            (None, 8, 8, 4)           148       
_________________________________________________________________
conv2d_6 (Conv2D)            (None, 6, 6, 4)           148       
_________________________________________________________________
flatten (Flatten)            (None, 144)               0         
_________________________________________________________________
dense (Dense)                (None, 64)                9280      
_________________________________________________________________
dense_1 (Dense)              (None, 32)                2080      
_________________________________________________________________
dense_2 (Dense)              (None, 16)                528       
_________________________________________________________________
dense_3 (Dense)              (None, 8)                 136       
_________________________________________________________________
dense_4 (Dense)              (None, 1)                 9         
=================================================================
Total params: 24,837
Trainable params: 24,813
Non-trainable params: 24
_________________________________________________________________
(20, 240)

1.0
(20, 240)

0.0
Epoch 1/100
337/337 - 401s - loss: 0.6931 - accuracy: 0.5468 - mse: 0.4532 - val_loss: 0.0000e+00 - val_accuracy: 0.0000e+00 - val_mse: 0.0000e+00
2020-07-28 13:55:31.040990: I tensorflow/core/kernels/data/shuffle_dataset_op.cc:143] Filling up shuffle buffer (this may take a while): 98 of 128
…
