…
2020-09-13 21:57:56.660451: W tensorflow/core/common_runtime/base_collective_executor.cc:216] BaseCollectiveExecutor::StartAbort Out of range: End of sequence
	 [[{{node IteratorGetNext}}]]
	 [[Shape/_4]]
2020-09-13 21:57:56.660831: W tensorflow/core/common_runtime/base_collective_executor.cc:216] BaseCollectiveExecutor::StartAbort Out of range: End of sequence
	 [[{{node IteratorGetNext}}]]
dataset path: /cluster/scratch/brunnelu/data/
running model 3
Model: "sequential"
_________________________________________________________________
Layer (type)                 Output Shape              Param #   
=================================================================
flatten (Flatten)            (None, 4800)              0         
_________________________________________________________________
batch_normalization (BatchNo (None, 4800)              19200     
_________________________________________________________________
dense (Dense)                (None, 64)                307264    
_________________________________________________________________
dense_1 (Dense)              (None, 64)                4160      
_________________________________________________________________
dense_2 (Dense)              (None, 32)                2080      
_________________________________________________________________
dense_3 (Dense)              (None, 32)                1056      
_________________________________________________________________
dense_4 (Dense)              (None, 16)                528       
_________________________________________________________________
dense_5 (Dense)              (None, 8)                 136       
_________________________________________________________________
dense_6 (Dense)              (None, 1)                 9         
=================================================================
Total params: 334,433
Trainable params: 324,833
Non-trainable params: 9,600
_________________________________________________________________
(20, 240)

1.0
(20, 240)

0.0
Epoch 1/100
24660/24660 - 3127s - loss: 0.1211 - accuracy: 0.8295 - mse: 0.1211 - val_loss: 0.0000e+00 - val_accuracy: 0.0000e+00 - val_mse: 0.0000e+00
2020-09-13 22:43:24.434149: W tensorflow/core/common_runtime/base_collective_executor.cc:216] BaseCollectiveExecutor::StartAbort Out of range: End of sequence
…
