…
2020-09-11 17:39:56.521042: W tensorflow/core/common_runtime/base_collective_executor.cc:216] BaseCollectiveExecutor::StartAbort Out of range: End of sequence
	 [[{{node IteratorGetNext}}]]
2020-09-11 17:39:56.521053: W tensorflow/core/common_runtime/base_collective_executor.cc:216] BaseCollectiveExecutor::StartAbort Out of range: End of sequence
	 [[{{node IteratorGetNext}}]]
	 [[IteratorGetNext/_2]]
dataset path: /cluster/scratch/brunnelu/data/
running model 4
Model: "sequential"
_________________________________________________________________
Layer (type)                 Output Shape              Param #   
=================================================================
reshape (Reshape)            (None, 20, 20, 12)        0         
_________________________________________________________________
batch_normalization (BatchNo (None, 20, 20, 12)        48        
_________________________________________________________________
dense (Dense)                (None, 20, 20, 16)        208       
_________________________________________________________________
dense_1 (Dense)              (None, 20, 20, 8)         136       
_________________________________________________________________
reshape_1 (Reshape)          (None, 20, 160)           0         
_________________________________________________________________
dense_2 (Dense)              (None, 20, 64)            10304     
_________________________________________________________________
dense_3 (Dense)              (None, 20, 32)            2080      
_________________________________________________________________
dense_4 (Dense)              (None, 20, 16)            528       
_________________________________________________________________
flatten (Flatten)            (None, 320)               0         
_________________________________________________________________
dense_5 (Dense)              (None, 64)                20544     
_________________________________________________________________
dense_6 (Dense)              (None, 32)                2080      
_________________________________________________________________
dense_7 (Dense)              (None, 16)                528       
_________________________________________________________________
dense_8 (Dense)              (None, 8)                 136       
_________________________________________________________________
dense_9 (Dense)              (None, 1)                 9         
=================================================================
Total params: 36,601
Trainable params: 36,577
Non-trainable params: 24
_________________________________________________________________
(20, 240)

1.0
(20, 240)

0.0
Epoch 1/100
28086/28086 - 3995s - loss: 0.5000 - accuracy: 0.5000 - mse: 0.5000 - val_loss: 0.0000e+00 - val_accuracy: 0.0000e+00 - val_mse: 0.0000e+00
2020-09-11 18:39:53.416370: W tensorflow/core/common_runtime/base_collective_executor.cc:216] BaseCollectiveExecutor::StartAbort Out of range: End of sequence
…
