…
Use `tf.data.Dataset.interleave(map_func, cycle_length, block_length, num_parallel_calls=tf.data.experimental.AUTOTUNE)` instead. If sloppy execution is desired, use `tf.data.Options.experimental_determinstic`.
2020-09-01 09:24:14.623406: I tensorflow/stream_executor/platform/default/dso_loader.cc:44] Successfully opened dynamic library libcublas.so.10
2020-09-01 09:24:18.551155: I tensorflow/stream_executor/platform/default/dso_loader.cc:44] Successfully opened dynamic library libcudnn.so.7
dataset path: /cluster/scratch/brunnelu/data/
Model: "sequential"
_________________________________________________________________
Layer (type)                 Output Shape              Param #   
=================================================================
reshape (Reshape)            (None, 20, 20, 12)        0         
_________________________________________________________________
batch_normalization (BatchNo (None, 20, 20, 12)        48        
_________________________________________________________________
conv2d (Conv2D)              (None, 18, 18, 16)        1744      
_________________________________________________________________
conv2d_1 (Conv2D)            (None, 16, 16, 32)        4640      
_________________________________________________________________
conv2d_2 (Conv2D)            (None, 14, 14, 16)        4624      
_________________________________________________________________
conv2d_3 (Conv2D)            (None, 12, 12, 8)         1160      
_________________________________________________________________
conv2d_4 (Conv2D)            (None, 10, 10, 4)         292       
_________________________________________________________________
conv2d_5 (Conv2D)            (None, 8, 8, 4)           148       
_________________________________________________________________
conv2d_6 (Conv2D)            (None, 6, 6, 4)           148       
_________________________________________________________________
flatten (Flatten)            (None, 144)               0         
_________________________________________________________________
dense (Dense)                (None, 64)                9280      
_________________________________________________________________
dense_1 (Dense)              (None, 32)                2080      
_________________________________________________________________
dense_2 (Dense)              (None, 16)                528       
_________________________________________________________________
dense_3 (Dense)              (None, 8)                 136       
_________________________________________________________________
dense_4 (Dense)              (None, 1)                 9         
=================================================================
Total params: 24,837
Trainable params: 24,813
Non-trainable params: 24
_________________________________________________________________
(20, 240)

1.0
(20, 240)

1.0
Epoch 1/100
Traceback (most recent call last):
  File "model.py", line 69, in <module>
    train()
  File "model.py", line 66, in train
    hist = model.fit(x=ds_train,epochs=100,validation_data=ds_val,verbose=2)
…
