…
	 [[{{node IteratorGetNext}}]]
dataset path: /cluster/scratch/brunnelu/data/
Model: "model"
__________________________________________________________________________________________________
Layer (type)                    Output Shape         Param #     Connected to                     
==================================================================================================
input_1 (InputLayer)            [(None, 20, 240)]    0                                            
__________________________________________________________________________________________________
reshape (Reshape)               (None, 20, 20, 12)   0           input_1[0][0]                    
__________________________________________________________________________________________________
batch_normalization (BatchNorma (None, 20, 20, 12)   48          reshape[0][0]                    
__________________________________________________________________________________________________
conv2d_1 (Conv2D)               (None, 20, 20, 16)   1744        batch_normalization[0][0]        
__________________________________________________________________________________________________
batch_normalization_2 (BatchNor (None, 20, 20, 16)   64          conv2d_1[0][0]                   
__________________________________________________________________________________________________
tf_op_layer_Relu (TensorFlowOpL [(None, 20, 20, 16)] 0           batch_normalization_2[0][0]      
__________________________________________________________________________________________________
conv2d (Conv2D)                 (None, 20, 20, 16)   208         batch_normalization[0][0]        
__________________________________________________________________________________________________
conv2d_2 (Conv2D)               (None, 20, 20, 16)   2320        tf_op_layer_Relu[0][0]           
__________________________________________________________________________________________________
batch_normalization_1 (BatchNor (None, 20, 20, 16)   64          conv2d[0][0]                     
__________________________________________________________________________________________________
batch_normalization_3 (BatchNor (None, 20, 20, 16)   64          conv2d_2[0][0]                   
__________________________________________________________________________________________________
add (Add)                       (None, 20, 20, 16)   0           batch_normalization_1[0][0]      
                                                                 batch_normalization_3[0][0]      
__________________________________________________________________________________________________
tf_op_layer_Relu_1 (TensorFlowO [(None, 20, 20, 16)] 0           add[0][0]                        
__________________________________________________________________________________________________
conv2d_4 (Conv2D)               (None, 20, 20, 32)   4640        tf_op_layer_Relu_1[0][0]         
__________________________________________________________________________________________________
batch_normalization_5 (BatchNor (None, 20, 20, 32)   128         conv2d_4[0][0]                   
__________________________________________________________________________________________________
tf_op_layer_Relu_2 (TensorFlowO [(None, 20, 20, 32)] 0           batch_normalization_5[0][0]      
__________________________________________________________________________________________________
conv2d_3 (Conv2D)               (None, 20, 20, 32)   544         tf_op_layer_Relu_1[0][0]         
__________________________________________________________________________________________________
conv2d_5 (Conv2D)               (None, 20, 20, 32)   9248        tf_op_layer_Relu_2[0][0]         
__________________________________________________________________________________________________
batch_normalization_4 (BatchNor (None, 20, 20, 32)   128         conv2d_3[0][0]                   
__________________________________________________________________________________________________
batch_normalization_6 (BatchNor (None, 20, 20, 32)   128         conv2d_5[0][0]                   
__________________________________________________________________________________________________
add_1 (Add)                     (None, 20, 20, 32)   0           batch_normalization_4[0][0]      
                                                                 batch_normalization_6[0][0]      
__________________________________________________________________________________________________
tf_op_layer_Relu_3 (TensorFlowO [(None, 20, 20, 32)] 0           add_1[0][0]                      
__________________________________________________________________________________________________
conv2d_7 (Conv2D)               (None, 20, 20, 16)   4624        tf_op_layer_Relu_3[0][0]         
__________________________________________________________________________________________________
batch_normalization_8 (BatchNor (None, 20, 20, 16)   64          conv2d_7[0][0]                   
__________________________________________________________________________________________________
tf_op_layer_Relu_4 (TensorFlowO [(None, 20, 20, 16)] 0           batch_normalization_8[0][0]      
__________________________________________________________________________________________________
conv2d_6 (Conv2D)               (None, 20, 20, 16)   528         tf_op_layer_Relu_3[0][0]         
__________________________________________________________________________________________________
conv2d_8 (Conv2D)               (None, 20, 20, 16)   2320        tf_op_layer_Relu_4[0][0]         
__________________________________________________________________________________________________
batch_normalization_7 (BatchNor (None, 20, 20, 16)   64          conv2d_6[0][0]                   
__________________________________________________________________________________________________
batch_normalization_9 (BatchNor (None, 20, 20, 16)   64          conv2d_8[0][0]                   
__________________________________________________________________________________________________
add_2 (Add)                     (None, 20, 20, 16)   0           batch_normalization_7[0][0]      
                                                                 batch_normalization_9[0][0]      
__________________________________________________________________________________________________
tf_op_layer_Relu_5 (TensorFlowO [(None, 20, 20, 16)] 0           add_2[0][0]                      
__________________________________________________________________________________________________
conv2d_10 (Conv2D)              (None, 20, 20, 8)    1160        tf_op_layer_Relu_5[0][0]         
__________________________________________________________________________________________________
batch_normalization_11 (BatchNo (None, 20, 20, 8)    32          conv2d_10[0][0]                  
__________________________________________________________________________________________________
tf_op_layer_Relu_6 (TensorFlowO [(None, 20, 20, 8)]  0           batch_normalization_11[0][0]     
__________________________________________________________________________________________________
conv2d_9 (Conv2D)               (None, 20, 20, 8)    136         tf_op_layer_Relu_5[0][0]         
__________________________________________________________________________________________________
conv2d_11 (Conv2D)              (None, 20, 20, 8)    584         tf_op_layer_Relu_6[0][0]         
__________________________________________________________________________________________________
batch_normalization_10 (BatchNo (None, 20, 20, 8)    32          conv2d_9[0][0]                   
__________________________________________________________________________________________________
batch_normalization_12 (BatchNo (None, 20, 20, 8)    32          conv2d_11[0][0]                  
__________________________________________________________________________________________________
add_3 (Add)                     (None, 20, 20, 8)    0           batch_normalization_10[0][0]     
                                                                 batch_normalization_12[0][0]     
__________________________________________________________________________________________________
tf_op_layer_Relu_7 (TensorFlowO [(None, 20, 20, 8)]  0           add_3[0][0]                      
__________________________________________________________________________________________________
conv2d_13 (Conv2D)              (None, 20, 20, 8)    584         tf_op_layer_Relu_7[0][0]         
__________________________________________________________________________________________________
batch_normalization_14 (BatchNo (None, 20, 20, 8)    32          conv2d_13[0][0]                  
__________________________________________________________________________________________________
tf_op_layer_Relu_8 (TensorFlowO [(None, 20, 20, 8)]  0           batch_normalization_14[0][0]     
__________________________________________________________________________________________________
conv2d_12 (Conv2D)              (None, 20, 20, 8)    72          tf_op_layer_Relu_7[0][0]         
__________________________________________________________________________________________________
conv2d_14 (Conv2D)              (None, 20, 20, 8)    584         tf_op_layer_Relu_8[0][0]         
__________________________________________________________________________________________________
batch_normalization_13 (BatchNo (None, 20, 20, 8)    32          conv2d_12[0][0]                  
__________________________________________________________________________________________________
batch_normalization_15 (BatchNo (None, 20, 20, 8)    32          conv2d_14[0][0]                  
__________________________________________________________________________________________________
add_4 (Add)                     (None, 20, 20, 8)    0           batch_normalization_13[0][0]     
                                                                 batch_normalization_15[0][0]     
__________________________________________________________________________________________________
tf_op_layer_Relu_9 (TensorFlowO [(None, 20, 20, 8)]  0           add_4[0][0]                      
__________________________________________________________________________________________________
conv2d_16 (Conv2D)              (None, 20, 20, 4)    292         tf_op_layer_Relu_9[0][0]         
__________________________________________________________________________________________________
batch_normalization_17 (BatchNo (None, 20, 20, 4)    16          conv2d_16[0][0]                  
__________________________________________________________________________________________________
tf_op_layer_Relu_10 (TensorFlow [(None, 20, 20, 4)]  0           batch_normalization_17[0][0]     
__________________________________________________________________________________________________
conv2d_15 (Conv2D)              (None, 20, 20, 4)    36          tf_op_layer_Relu_9[0][0]         
__________________________________________________________________________________________________
conv2d_17 (Conv2D)              (None, 20, 20, 4)    148         tf_op_layer_Relu_10[0][0]        
__________________________________________________________________________________________________
batch_normalization_16 (BatchNo (None, 20, 20, 4)    16          conv2d_15[0][0]                  
__________________________________________________________________________________________________
batch_normalization_18 (BatchNo (None, 20, 20, 4)    16          conv2d_17[0][0]                  
__________________________________________________________________________________________________
add_5 (Add)                     (None, 20, 20, 4)    0           batch_normalization_16[0][0]     
                                                                 batch_normalization_18[0][0]     
__________________________________________________________________________________________________
tf_op_layer_Relu_11 (TensorFlow [(None, 20, 20, 4)]  0           add_5[0][0]                      
__________________________________________________________________________________________________
conv2d_19 (Conv2D)              (None, 20, 20, 4)    148         tf_op_layer_Relu_11[0][0]        
__________________________________________________________________________________________________
batch_normalization_20 (BatchNo (None, 20, 20, 4)    16          conv2d_19[0][0]                  
__________________________________________________________________________________________________
tf_op_layer_Relu_12 (TensorFlow [(None, 20, 20, 4)]  0           batch_normalization_20[0][0]     
__________________________________________________________________________________________________
conv2d_18 (Conv2D)              (None, 20, 20, 4)    20          tf_op_layer_Relu_11[0][0]        
__________________________________________________________________________________________________
conv2d_20 (Conv2D)              (None, 20, 20, 4)    148         tf_op_layer_Relu_12[0][0]        
__________________________________________________________________________________________________
batch_normalization_19 (BatchNo (None, 20, 20, 4)    16          conv2d_18[0][0]                  
__________________________________________________________________________________________________
batch_normalization_21 (BatchNo (None, 20, 20, 4)    16          conv2d_20[0][0]                  
__________________________________________________________________________________________________
add_6 (Add)                     (None, 20, 20, 4)    0           batch_normalization_19[0][0]     
                                                                 batch_normalization_21[0][0]     
__________________________________________________________________________________________________
tf_op_layer_Relu_13 (TensorFlow [(None, 20, 20, 4)]  0           add_6[0][0]                      
__________________________________________________________________________________________________
flatten (Flatten)               (None, 1600)         0           tf_op_layer_Relu_13[0][0]        
__________________________________________________________________________________________________
dense (Dense)                   (None, 64)           102464      flatten[0][0]                    
__________________________________________________________________________________________________
dense_1 (Dense)                 (None, 32)           2080        dense[0][0]                      
__________________________________________________________________________________________________
dense_2 (Dense)                 (None, 16)           528         dense_1[0][0]                    
__________________________________________________________________________________________________
dense_3 (Dense)                 (None, 8)            136         dense_2[0][0]                    
__________________________________________________________________________________________________
dense_4 (Dense)                 (None, 1)            9           dense_3[0][0]                    
==================================================================================================
Total params: 136,409
Trainable params: 135,857
Non-trainable params: 552
__________________________________________________________________________________________________
(20, 240)

0.0
(20, 240)

0.0
Epoch 1/100
28072/28072 - 3964s - loss: 0.4991 - accuracy: 0.5009 - mse: 0.4991 - val_loss: 0.0000e+00 - val_accuracy: 0.0000e+00 - val_mse: 0.0000e+00
…
