…
2020-09-15 02:42:11.605315: W tensorflow/core/common_runtime/base_collective_executor.cc:216] BaseCollectiveExecutor::StartAbort Out of range: End of sequence
	 [[{{node IteratorGetNext}}]]
2020-09-15 02:42:11.605316: W tensorflow/core/common_runtime/base_collective_executor.cc:216] BaseCollectiveExecutor::StartAbort Out of range: End of sequence
	 [[{{node IteratorGetNext}}]]
	 [[IteratorGetNext/_2]]
dataset path: /cluster/scratch/brunnelu/data/
running model 3
Model: "sequential"
_________________________________________________________________
Layer (type)                 Output Shape              Param #   
=================================================================
flatten (Flatten)            (None, 4800)              0         
_________________________________________________________________
batch_normalization (BatchNo (None, 4800)              19200     
_________________________________________________________________
dense (Dense)                (None, 64)                307264    
_________________________________________________________________
dense_1 (Dense)              (None, 64)                4160      
_________________________________________________________________
dense_2 (Dense)              (None, 64)                4160      
_________________________________________________________________
dense_3 (Dense)              (None, 64)                4160      
_________________________________________________________________
dense_4 (Dense)              (None, 64)                4160      
_________________________________________________________________
dense_5 (Dense)              (None, 32)                2080      
_________________________________________________________________
dense_6 (Dense)              (None, 1)                 33        
=================================================================
Total params: 345,217
Trainable params: 335,617
Non-trainable params: 9,600
_________________________________________________________________
(20, 240)

0.0
(20, 240)

1.0
Epoch 1/100
24493/24493 - 3421s - loss: 0.1213 - accuracy: 0.8301 - mse: 0.1213 - val_loss: 0.0000e+00 - val_accuracy: 0.0000e+00 - val_mse: 0.0000e+00
2020-09-15 03:32:03.745213: W tensorflow/core/common_runtime/base_collective_executor.cc:216] BaseCollectiveExecutor::StartAbort Out of range: End of sequence
…
